vae_opt_output/best_model_weights.pth (torch, 109234 bytes, 18 tensors)

encoder.encoder.0.0.weight f4 [164, 36]
0	0xbecf21c3	-0.40455446
1	0xbea46fba	-0.3211649
2	0xbd4351f0	-0.047685564
3	0x3e91617d	0.2839469
4	0xbf9608e4	-1.1721463
5	0x3dd2b721	0.10288835
6	0x3e7cb4b4	0.24678308
7	0x3e4a6429	0.1976477
8	0x3e821e0b	0.25413546
9	0x3d1c6473	0.038181733
10	0xbeb21e78	-0.3478887
11	0x3aaf424c	0.0013371198
12	0xbe498588	-0.19679844
13	0xbe8beec4	-0.273306
14	0xbf1dd8f6	-0.6165918
15	0x3ea89a48	0.32930207
16	0x3e6fbe3e	0.23412415
17	0xbead5570	-0.33854246
18	0xbefdb0c8	-0.49548936
19	0xbcf8a609	-0.03035261
20	0xbe02d8c0	-0.12777996
21	0x3ca41a1e	0.020031985
22	0x3d9de01b	0.0770876
23	0x3dd1a716	0.10236947
24	0x3d0ba9da	0.03409753
25	0x3c81d41f	0.015848218
26	0xbea87539	-0.32901934
27	0xbea5ccf0	-0.32382917
28	0xbe775b67	-0.24155961
29	0xbc8bebf5	-0.017080287
30	0x3edf2f8b	0.4359096
31	0xbf129215	-0.57254153
32	0x3c1c06c0	0.009523094
33	0xbe4f638a	-0.20252815
34	0xbec1f42b	-0.37881598
35	0xbe6a1e42	-0.22863105
36	0xbe2c1f22	-0.16808751
37	0x3e29bb1b	0.16575281
38	0xbdc8fef7	-0.09814256
39	0x3e987a58	0.2978084
40	0x3e920b2d	0.2852415
41	0x3ecd5ee8	0.4011147
42	0xbdbe5932	-0.092943564
43	0xbdef58c0	-0.116868496
44	0x3ebe1956	0.37128705
45	0xbeb0cd7d	-0.34531775
46	0xbe4f39c3	-0.20236878
47	0x3ddd5ee7	0.10809117
48	0x3dcda4fb	0.10041233
49	0xbe5a99eb	-0.21347778
50	0xbeea2112	-0.45728356
51	0xbdfd0b2d	-0.12355647
52	0x3ea9597b	0.3307608
53	0x3dec1250	0.1152693
54	0x3cd366ea	0.02580591
55	0xbf2822bd	-0.65678006
56	0x3f35134a	0.7073256
57	0xbd5e4cdd	-0.05427252
58	0xbf30a250	-0.6899767
59	0x3dbfb891	0.09361375
60	0xbe8fca10	-0.2808385
61	0x3eb81c1f	0.35958955
62	0xbf4a9a2a	-0.79141486
63	0xbdaa7915	-0.08323876
64	0x3e387270	0.18012404
65	0xbea32fa2	-0.31872278
66	0xbf75ba4a	-0.9598738
67	0xbe3e960d	-0.18611927
68	0xbe0f1d44	-0.13976008
69	0x3ee4835b	0.44631466
70	0xbda5dfd3	-0.08099332
71	0xbcb01933	-0.02149639
72	0xbf0034c1	-0.50080496
73	0xbe87a52b	-0.264932
74	0x3ea4247b	0.32059082
75	0x3e4f7a7b	0.20261566
76	0xbf23e82d	-0.6402615
77	0xbdfff2bd	-0.124974705
78	0xbdb7959e	-0.08964084
79	0xbd5049b3	-0.050851535
80	0x3f383c0a	0.7196661
81	0xbeaeae83	-0.34117517
82	0xbb80cd6d	-0.0039307387
83	0x3e8cc3b8	0.27493072
84	0x3e92ac56	0.28647107
85	0xbe90c662	-0.28276354
86	0x3e6eef6c	0.2333352
87	0x3f272e6e	0.6530522
88	0x3ecede64	0.40404046
89	0xbd420a5e	-0.04737317
90	0x3e90d2f4	0.28285944
91	0x3e9cc8f7	0.30622074
92	0xbd9497e7	-0.072555356
93	0x3ed14531	0.408731
94	0xbecbd72f	-0.3981261
95	0x3e9f2f35	0.31090704
96	0x3e6d78ae	0.23190567
97	0xbd2f2bc4	-0.042766348
98	0xbe068788	-0.13137639
99	0x3e1454ef	0.14485525
100	0x3e8d4aed	0.27596226
101	0xbf3fe6c7	-0.74961513
102	0xbdb42142	-0.08795406
103	0x3e989c52	0.29806763
104	0x3e753d04	0.23949057
105	0xbd8f4e7e	-0.06997393
106	0xbdcd352d	-0.10019908
107	0xbd77e984	-0.060525432
108	0xbef87291	-0.48524907
109	0xbf2873ef	-0.658019
110	0x3eb8fb67	0.36129305
111	0xbf066c03	-0.5250856
112	0x3ec860af	0.39136264
113	0x3ddf00dc	0.10888836
114	0x3e3d2331	0.18470456
115	0xbe9811b6	-0.29701012
116	0x3efb1aa9	0.49043778
117	0x3c5c1407	0.013432509
118	0x3f07de2b	0.53073376
119	0xbcbc65f9	-0.022997843
120	0xbd560f73	-0.052260827
121	0x3d643c82	0.055721767
122	0xbc6a989f	-0.014318614
123	0x3ea55636	0.32292336
124	0x3ef72ffe	0.48278803
125	0xbe0787f3	-0.13235454
126	0x3e5b4bd6	0.21415648
127	0xbf24f28e	-0.6443261
128	0x3d066131	0.032807533
129	0x3ef580f7	0.47949955
130	0xbc8ce2ab	-0.017197927
131	0xbeb63e8c	-0.35594594
132	0x3e5956d3	0.21224527
133	0xbf9d3582	-1.2281954
134	0x3e5bcb8d	0.21464367
135	0x3ec07c4a	0.37594825
136	0xbec49a38	-0.3839891
137	0x3ea50f38	0.32238173
138	0x3de13a1e	0.10997413
139	0xbe9066a5	-0.28203312
140	0xbd851e18	-0.064998806
141	0x3e07af3d	0.13250442
142	0x3dcf2937	0.10115283
143	0xbd1ab17b	-0.037766915
144	0x3eec3f2b	0.46141943
145	0x3ee388c0	0.4444027
146	0xbc20d0c0	-0.009815395
147	0xbee85c7c	-0.4538306
148	0xbe317c9c	-0.17332691
149	0x3f28ecca	0.6598631
150	0x3e338ad7	0.17533432
151	0xbe1d127e	-0.15339085
152	0x3e391f07	0.18078242
153	0xbe0b1cef	-0.13585256
154	0xbcc5c04f	-0.024139551
155	0x3eb2a06a	0.3488801
156	0x3e884dff	0.26622006
157	0xbe824c4c	-0.25448835
158	0x3e90d4f3	0.28287467
159	0x3dc036fd	0.09385488
160	0xbf09e5c4	-0.5386622
161	0xbd38f842	-0.045158632
162	0x3e7439d3	0.23850183
163	0xbde81048	-0.113312304
164	0xbe94b597	-0.29044792
165	0x3e4be505	0.19911583
166	0xbf6b84cf	-0.91999525
167	0xbe98bfe3	-0.29833898
168	0x3cc3148b	0.023813507
169	0x3eff22e1	0.49831298
170	0x3e6d69f7	0.23184954
171	0x3e620519	0.22072257
172	0xbe971fc6	-0.2951643
173	0x3d3b95c7	0.045797136
174	0x3ea5c8c2	0.3237973
175	0x3e58337b	0.21113388
176	0xbf099b37	-0.53752464
177	0x3e92389d	0.28558818
178	0xbe1b3be3	-0.15159564
179	0xbd97ac44	-0.07405904
180	0xbf38c86e	-0.7218083
181	0x3f2b0ccd	0.6681641
182	0x3e953632	0.2914291
183	0xbe60c069	-0.21948399
184	0xbc53b055	-0.012920459
185	0xbe9b9b21	-0.3039179
186	0xbca4ed5f	-0.020132719
187	0x3d689a5a	0.056787826
188	0x3e03c1ca	0.12866893
189	0x3e8a3fdf	0.27001855
190	0xbda67508	-0.08127791
191	0xbc45b833	-0.012067842
192	0x3e3f8f86	0.18707094
193	0xbd02053d	-0.031743277
194	0x3d69875b	0.05701385
195	0x3d241abb	0.040064555
196	0xbfc1b7ac	-1.5134177
197	0x3ded15d6	0.115764305
198	0x3e628257	0.22120033
199	0xbdefe29a	-0.11713143
200	0x3dd944d3	0.1060883
201	0xbe96d6ba	-0.29460698
202	0x3e7451a5	0.2385927
203	0x3d229e23	0.039701592
204	0x3e92a0a4	0.28638184
205	0x3e817d60	0.25290966
206	0xbce0f8a1	-0.027462306
207	0xbe7bfa03	-0.2460709
208	0x3de468f7	0.11152833
209	0x3ebbb6ae	0.3666281
210	0xbdadd47f	-0.08487796
211	0x3d3e1cb8	0.046414107
212	0x3d92dbff	0.07170867
213	0xbf3b278a	-0.73107207
214	0x3e3a7f73	0.1821268
215	0x3b855279	0.0040686694
216	0xbfae26f3	-1.3605636
217	0xbfc0944b	-1.5045255
218	0xbf53a7fd	-0.82678205
219	0x3f1b6bc3	0.60711306
220	0x3c7c4829	0.015398064
221	0x3ee57f8b	0.4482387
222	0x3c0b1582	0.008489015
223	0xbec028ff	-0.37531278
224	0xbe5208f0	-0.20511222
225	0x3bbebcbb	0.0058208383
226	0x3db043f1	0.08606709
227	0x3e29969b	0.16561358
228	0x3de91edf	0.11382841
229	0xbe7fd542	-0.24983695
230	0x3dc4284c	0.095779985
231	0xbeda5d3b	-0.42649254
232	0xbe76d18d	-0.24103375
233	0xbd0e0ee7	-0.03468218
234	0x3e275375	0.1634043
235	0xbe801acd	-0.25020447
236	0x3ee40c7f	0.44540784
237	0xbe1ed93b	-0.15512554
238	0xbcd8328e	-0.026391294
239	0x3e329b5c	0.17442077
240	0xbcabb1ff	-0.020958899
241	0xbd435925	-0.047692437
242	0x3c74a2cc	0.014931392
243	0xbcb0d8dd	-0.021587783
244	0xba5d77db	-0.0008448341
245	0x3e46ecb5	0.19426234
246	0xbe0b028e	-0.13575193
247	0x3de0476c	0.10951123
248	0x3c8ed1ff	0.017434118
249	0xbf3c47d6	-0.7354711
250	0x3e38fe2c	0.18065709
251	0x3e7e69e6	0.24845085
252	0xbefa54ce	-0.48892826
253	0xbe9bb982	-0.3041497
254	0x3e8c5815	0.2741095
255	0xbe8af901	-0.271431

encoder.encoder.0.0.bias f4 [164]
0	0xb6e5fe12	-6.8543095e-06
1	0x3693ff40	4.4106564e-06
2	0x3300c649	2.998266e-08
3	0x36868172	4.0085806e-06
4	0x360a6a8c	2.062562e-06
5	0xb6fe6f1e	-7.5827256e-06
6	0x363c4eb2	2.805999e-06
7	0x366416db	3.3987951e-06
8	0x371c1241	9.302575e-06
9	0x366359a1	3.3877807e-06
10	0x35b151b2	1.3211304e-06
11	0xb72a4edf	-1.0151153e-05
12	0xb6153454	-2.223319e-06
13	0xb707d9be	-8.097324e-06
14	0xb697e039	-4.5262536e-06
15	0xb6d6a399	-6.3967423e-06
16	0x36df7eef	6.660695e-06
17	0x3580de52	9.601447e-07
18	0x36248ba4	2.4519186e-06
19	0xb70ba43c	-8.323284e-06
20	0x361b7acc	2.3168277e-06
21	0x37160e62	8.9440455e-06
22	0xb5bbc4fc	-1.3989916e-06
23	0xb725347b	-9.846985e-06
24	0x35d07047	1.5529885e-06
25	0xb794c0f5	-1.7732827e-05
26	0xb6e502a0	-6.8250374e-06
27	0x367d42b9	3.7738776e-06
28	0xb6e11fab	-6.709209e-06
29	0x369893b6	4.547149e-06
30	0xb5cef9d5	-1.5420907e-06
31	0xb6814a09	-3.8531184e-06
32	0xb743874d	-1.1654408e-05
33	0xb7365132	-1.086695e-05
34	0x3614b7b4	2.2160648e-06
35	0x360c9665	2.0949167e-06
36	0x358756c3	1.0083535e-06
37	0xb6cea130	-6.158043e-06
38	0x345580c7	1.988402e-07
39	0xb5b9b39a	-1.3835845e-06
40	0x35671b7a	8.609419e-07
41	0xb50dcbdf	-5.2823265e-07
42	0xb6a4d070	-4.911846e-06
43	0xb7c835b1	-2.386686e-05
44	0x3722e13f	9.708397e-06
45	0x361051f9	2.1505386e-06
46	0xb7992ca7	-1.8259814e-05
47	0xb7677753	-1.3796455e-05
48	0xb41e0961	-1.4718309e-07
49	0xb6acea35	-5.1532647e-06
50	0x364771a8	2.9719467e-06
51	0x37a6d675	1.9888606e-05
52	0xb5c5d1be	-1.4738687e-06
53	0x35b0d2b8	1.3174349e-06
54	0xb6f27cb7	-7.2266807e-06
55	0xb5566edf	-7.988255e-07
56	0x37a9e171	2.025135e-05
57	0x377ca22c	1.5058129e-05
58	0x362e5ebc	2.5983163e-06
59	0xb6738fb6	-3.6293472e-06
60	0xb5c1eff4	-1.4449456e-06
61	0xb74eedaf	-1.2333897e-05
62	0xb7a20a55	-1.9316716e-05
63	0x3596aceb	1.1226197e-06
64	0x36e8e18c	6.940396e-06
65	0xb74974a0	-1.20076875e-05
66	0xb6f59ea3	-7.3200367e-06
67	0xb82c9337	-4.11451e-05
68	0x36975430	4.5099514e-06
69	0x37ca4660	2.4113047e-05
70	0x36879ac6	4.0413315e-06
71	0xb65ab0fe	-3.2587554e-06
72	0xb6d58106	-6.362915e-06
73	0x3658e5e6	3.2320327e-06
74	0x36445a97	2.9259006e-06
75	0xb724bac0	-9.818643e-06
76	0x362aaef0	2.54338e-06
77	0xb4bd3a89	-3.5246583e-07
78	0x3699d0c4	4.584059e-06
79	0x37a3c26b	1.9521647e-05
80	0x36895d0b	4.09375e-06
81	0x3556d265	8.0027377e-07
82	0x37504219	1.2413156e-05
83	0x35cb3daa	1.5142625e-06
84	0x356b7f84	8.772988e-07
85	0x35c5337a	1.4692625e-06
86	0xb5f8c47a	-1.8534622e-06
87	0x371df00d	9.41382e-06
88	0x35339781	6.6903164e-07
89	0x36bb2e41	5.578419e-06
90	0x36d008ad	6.199893e-06
91	0xb80d2bc7	-3.365779e-05
92	0x378bada8	1.6650956e-05
93	0x356d2379	8.8341e-07
94	0x37403dd9	1.1458492e-05
95	0xb6cc845b	-6.095082e-06
96	0xb6398a93	-2.764781e-06
97	0xb7227a18	-9.68438e-06
98	0x361aa17e	2.304179e-06
99	0x37642203	1.3597778e-05
100	0xb7026d99	-7.7741215e-06
101	0xb6e7d471	-6.909068e-06
102	0x3687d6bb	4.0483114e-06
103	0x375dbd7a	1.3216742e-05
104	0x34213547	1.5013676e-07
105	0xb643e29a	-2.9189164e-06
106	0x36878351	4.0386008e-06
107	0x36a79b75	4.9950854e-06
108	0x37d04728	2.4828667e-05
109	0xb65717fb	-3.2051455e-06
110	0xb71211e3	-8.706443e-06
111	0x3705b880	7.970375e-06
112	0xb72f305d	-1.0442073e-05
113	0x36fcc7b9	7.533436e-06
114	0x3712ce84	8.750361e-06
115	0xb68dac13	-4.2221595e-06
116	0xb5841b09	-9.842635e-07
117	0xb59d1e16	-1.1706168e-06
118	0x37bb380c	2.2318236e-05
119	0x37e28715	2.7004202e-05
120	0xb735350f	-1.0800794e-05
121	0x3809aca7	3.282414e-05
122	0x3680753c	3.828345e-06
123	0x36821d58	3.877718e-06
124	0xb581d5ef	-9.673512e-07
125	0x36e3ca29	6.7886617e-06
126	0x371602e4	8.94137e-06
127	0x35bf95a8	1.4274165e-06
128	0xb726d740	-9.944488e-06
129	0x377d1443	1.5084693e-05
130	0xb6ea03a6	-6.974168e-06
131	0xb656ea26	-3.2024777e-06
132	0x3574c2ac	9.118037e-07
133	0x3832fc9b	4.2673764e-05
134	0x3601da49	1.9349557e-06
135	0x346efee6	2.2258209e-07
136	0xb74bf27e	-1.21562025e-05
137	0x36fc8265	7.525365e-06
138	0xb6c3f5d1	-5.8400697e-06
139	0x36ae6f47	5.1985585e-06
140	0xb56728eb	-8.611375e-07
141	0xb69b20bd	-4.623171e-06
142	0xb5cde0f7	-1.5339164e-06
143	0x37c4c125	2.345496e-05
144	0x3632c4bd	2.6638584e-06
145	0xb71a90c7	-9.212824e-06
146	0xb611bb57	-2.171573e-06
147	0x37186efc	9.085747e-06
148	0xb621ba30	-2.4099245e-06
149	0xb790487a	-1.7199887e-05
150	0xb63ac814	-2.783262e-06
151	0x371c4e20	9.3165145e-06
152	0xb6b8ef0e	-5.511457e-06
153	0x3689be02	4.105038e-06
154	0xb7182e0e	-9.070629e-06
155	0xb4674ec8	-2.1542212e-07
156	0xb6383d5d	-2.7453855e-06
157	0x359099ef	1.0773637e-06
158	0x37282406	1.0021968e-05
159	0x376455d8	1.3609846e-05
160	0xb70dec65	-8.459295e-06
161	0x3559fb51	8.1204513e-07
162	0x3591f55d	1.0874752e-06
163	0xb704ce9d	-7.915919e-06

encoder.encoder.0.1.weight f4 [164]
0	0x3e9429b3	0.28938064
1	0x3e3c2e03	0.18376927
2	0x3e213df0	0.15746284
3	0x3e61229c	0.21985859
4	0x3e499a05	0.1968766
5	0x3e53fda6	0.20702228
6	0x3f073d8d	0.52828294
7	0x3e27e4df	0.16395901
8	0x3e9c4b6b	0.3052629
9	0x3e56522e	0.20929787
10	0x3e290b4f	0.1650822
11	0x3e6b19e7	0.229591
12	0x3e96d432	0.29458767
13	0x3e0d472e	0.13796684
14	0x3e1f3f8b	0.15551583
15	0x3eaad7ad	0.33367673
16	0x3e810474	0.2519871
17	0x3e988a1f	0.29792878
18	0x3e97f91c	0.29682243
19	0x3e3e321c	0.18573803
20	0x3e30763f	0.17232607
21	0x3f346132	0.7046081
22	0x3ea012ea	0.3126443
23	0x3ebc09ff	0.36726376
24	0x3edaf4c2	0.4276486
25	0x3e73e19c	0.23816532
26	0x3ebf8cdb	0.37412152
27	0x3e33329c	0.17499775
28	0x3e55716b	0.20844047
29	0x3f09ea5c	0.5387323
30	0x3e2ffa2c	0.17185277
31	0x3e9a3f73	0.30126533
32	0x3e51f286	0.20502672
33	0x3e30ab5d	0.1725287
34	0x3e1d1861	0.15341331
35	0x3ede3794	0.43401778
36	0x3eb9d62c	0.36296213
37	0x3e668378	0.22511089
38	0x3ef1cea6	0.47227973
39	0x3e0fd297	0.14045177
40	0x3e6eded1	0.23327185
41	0x3e20ae66	0.15691528
42	0x3e6c9996	0.23105463
43	0x3eb742af	0.35793063
44	0x3e956faf	0.2918677
45	0x3e7298c5	0.2369109
46	0x3e357bbe	0.17722985
47	0x3ef53259	0.47889975
48	0x3e29aca2	0.1656976
49	0x3e3ac510	0.18239236
50	0x3f07312f	0.52809423
51	0x3e83f880	0.25775528
52	0x3e252924	0.16128975
53	0x3e4fbdc0	0.20287228
54	0x3e5ec362	0.2175422
55	0x3e7ab869	0.2448441
56	0x3f23d9d4	0.64004254
57	0x3ea5020c	0.32228124
58	0x3ee72da5	0.45152012
59	0x3e604a10	0.21903253
60	0x3e2bf72a	0.16793504
61	0x3e0e0654	0.13869601
62	0x3ec96922	0.39338022
63	0x3e247427	0.16059934
64	0x3e9cfd54	0.30662024
65	0x3ecf5edc	0.4050206
66	0x3e6a64c6	0.22890005
67	0x3e9732ff	0.29531094
68	0x3ef807ef	0.48443553
69	0x3f092ac4	0.5358088
70	0x3f043031	0.51636034
71	0x3e3c6e3d	0.18401428
72	0x3e5687ca	0.20950237
73	0x3e2b5631	0.16732098
74	0x3e7a5bf2	0.24449137
75	0x3e5d7107	0.21625148
76	0x3e4db4fd	0.20088573
77	0x3e3d9a4d	0.18515892
78	0x3ed700fc	0.4199294
79	0x3e12eacd	0.14347382
80	0x3e4aeb13	0.19816236
81	0x3ede548e	0.43423885
82	0x3e2d21ce	0.16907427
83	0x3e1ff732	0.15621641
84	0x3e61b2ad	0.22040816
85	0x3e8eea59	0.27913168
86	0x3e72e2e6	0.23719367
87	0x3f23d6c5	0.6399959
88	0x3e7238fe	0.23654553
89	0x3e3985cd	0.18117447
90	0x3e2c1c18	0.16807592
91	0x3e127c57	0.14305244
92	0x3e6229c3	0.22086243
93	0x3e445fcd	0.1917717
94	0x3e4c0f11	0.19927622
95	0x3e3501bb	0.17676441
96	0x3e1f65de	0.15566203
97	0x3eace931	0.3377166
98	0x3e28dba5	0.16490038
99	0x3e376d03	0.17912678
100	0x3e402baf	0.18766664
101	0x3e2be012	0.16784695
102	0x3e1b5a15	0.15171082
103	0x3e759deb	0.23986022
104	0x3eddb1eb	0.43299803
105	0x3e76f3dd	0.24116464
106	0x3e425c2b	0.18980472
107	0x3e19ab49	0.15006746
108	0x3f0332f2	0.5124961
109	0x3eb8fb9e	0.3612947
110	0x3e8afc86	0.27145785
111	0x3e5ec876	0.21756157
112	0x3ee710c3	0.45129976
113	0x3e85e286	0.26149386
114	0x3e65d636	0.22444996
115	0x3e493aa1	0.19651271
116	0x3e2c8068	0.16845858
117	0x3e42209b	0.1895775
118	0x3e2e59f4	0.17026502
119	0x3ed150fb	0.40882096
120	0x3e9d3169	0.3070176
121	0x3e98a5e3	0.29814062
122	0x3e32aaa2	0.17447904
123	0x3e2a69a4	0.16641861
124	0x3e7fb567	0.24971543
125	0x3e89e600	0.2693329
126	0x3e57b8e9	0.21066631
127	0x3e3aeb86	0.18253908
128	0x3ea809d9	0.32820013
129	0x3e3f51c6	0.18683538
130	0x3e602867	0.21890412
131	0x3e3b0204	0.18262488
132	0x3e601c11	0.21885706
133	0x3e4838ed	0.19552965
134	0x3e508d4d	0.20366402
135	0x3e2ffb5a	0.17185727
136	0x3e0fc9f0	0.14041877
137	0x3e401a26	0.18759975
138	0x3e68282c	0.22671574
139	0x3e5ccdcc	0.2156288
140	0x3eb2f7db	0.34954724
141	0x3e3e38eb	0.185764
142	0x3e4bce40	0.19902897
143	0x3e7e8360	0.24854803
144	0x3e21943d	0.15779205
145	0x3e1945b3	0.14967994
146	0x3e4e2755	0.20132191
147	0x3e4693ef	0.1939237
148	0x3ee3fe6c	0.44530046
149	0x3e4fecd3	0.20305185
150	0x3e1994cd	0.14998169
151	0x3e8c615f	0.27418038
152	0x3e2bd796	0.16781458
153	0x3e1aa461	0.15101768
154	0x3e43dcb8	0.19127166
155	0x3e2efab6	0.17087826
156	0x3e349db5	0.17638285
157	0x3e1e90b8	0.15484893
158	0x3f34d3c9	0.7063566
159	0x3e293db6	0.16527447
160	0x3e4974f9	0.19673528
161	0x3e371fe7	0.17883264
162	0x3e448d35	0.19194491
163	0x3e182070	0.14856124

encoder.encoder.0.1.bias f4 [164]
0	0x3ceab0ef	0.028648822
1	0x3ca504fc	0.020143978
2	0xbbab8920	-0.0052348524
3	0x3cdd0f3d	0.026984805
4	0x3d341eca	0.043974675
5	0x3d05e6b0	0.032690704
6	0xbe3090bf	-0.17242716
7	0x3d3c8d09	0.04603294
8	0xbcee5289	-0.02909209
9	0xbd269474	-0.04066892
10	0x3ce9ecb1	0.028555246
11	0x3daaf594	0.083476216
12	0xbd2a93b4	-0.041644767
13	0x3d3ba6b0	0.045813262
14	0x3d359720	0.044333577
15	0xbcdf7a2d	-0.027279938
16	0x3da4c260	0.080448866
17	0xbe0389ad	-0.12845488
18	0xbcf68091	-0.030090602
19	0x3cf2e252	0.029648934
20	0x3d2e9445	0.04262187
21	0xbdc8f1a4	-0.09811714
22	0x3ddaa15e	0.106753096
23	0xbddb174c	-0.10697803
24	0xbe1ccf3f	-0.15313433
25	0x3dd85a6c	0.105641216
26	0xbea4669b	-0.32109532
27	0x3d2e4f28	0.042555958
28	0x3cf840c1	0.030304315
29	0xbdd41f92	-0.10357584
30	0x3cf1d487	0.029520286
31	0xbd92bcd3	-0.071649216
32	0xbc97e750	-0.018542916
33	0x3d612fcb	0.05497722
34	0x3cff07f0	0.031131715
35	0xbd8b63d1	-0.06806148
36	0x3e306e4e	0.17229578
37	0x3cbdc181	0.023163559
38	0xbdc0fba8	-0.094229996
39	0x3d56872d	0.052375007
40	0xbd4f3f48	-0.05059746
41	0x3d561408	0.052265197
42	0xbced5add	-0.028973991
43	0xbd828535	-0.063730635
44	0x3dc5b07b	0.096528016
45	0x3d9493da	0.07254763
46	0x3cd00168	0.025391296
47	0xbe058d75	-0.13042243
48	0x3d159e15	0.036527712
49	0x3c43a0a5	0.011940156
50	0x3dc9fb70	0.09862411
51	0xbdc2d0bc	-0.09512469
52	0x3d108c23	0.035289895
53	0x3dd539b1	0.104113944
54	0x3cab1194	0.020882405
55	0xbdb804d6	-0.089852974
56	0xbe8f8c69	-0.28036812
57	0xbd1b8fb4	-0.037978843
58	0xbdadc45a	-0.08484717
59	0x3c6399b7	0.013891629
60	0x3d6198ae	0.055077247
61	0x3d496a41	0.049173597
62	0xbe5111d3	-0.20416956
63	0x3d2aed58	0.041730255
64	0x3dbe5547	0.09293609
65	0x3d216828	0.03940597
66	0x3db23a2b	0.08702501
67	0x3df423c2	0.11920883
68	0xbe0e1713	-0.1387599
69	0xbea664b4	-0.32498705
70	0xbdb4a1e3	-0.0881994
71	0x3d9071f9	0.070529886
72	0x3c69539f	0.014241128
73	0x3d7fef15	0.062483866
74	0x3d005e50	0.031339943
75	0x3be672b9	0.007032719
76	0x3d681faf	0.05667084
77	0x3d3db957	0.046319332
78	0xbddfa1a8	-0.10919505
79	0x3d64c4fc	0.05585192
80	0x3d9138ee	0.070909366
81	0x3e0d84b6	0.13820156
82	0xbb81a1cb	-0.003956055
83	0x3d646768	0.05576268
84	0x3db86c88	0.09005076
85	0xbc1c2263	-0.009529683
86	0xba8e595a	-0.0010860369
87	0xbe9bfb11	-0.30464986
88	0x3da165ce	0.07880746
89	0x3d15ceca	0.036574163
90	0x3dc6b32f	0.09702145
91	0x3d9c8b62	0.07643773
92	0xbc36c274	-0.01115476
93	0x3d1ae1e0	0.037813067
94	0x3d5f9133	0.054581832
95	0x3cdff8b8	0.027340278
96	0x3cdaf754	0.026729263
97	0x3d103604	0.035207763
98	0x3c9b1736	0.018931966
99	0x3d1e1c09	0.038600955
100	0x3dc6fadf	0.097158186
101	0x3d84602b	0.06463655
102	0x3ce76ac0	0.028249145
103	0x3d95504e	0.072907075
104	0x3dd5bccc	0.10436401
105	0xbc82f2a4	-0.01598484
106	0x3d46582a	0.048423924
107	0x3d397731	0.045279685
108	0x3d84176e	0.06449781
109	0xbde32881	-0.1109171
110	0x3dc9763d	0.09837005
111	0xbdbe133c	-0.092810124
112	0xbe41ecaa	-0.18937936
113	0x3d93c29f	0.072148554
114	0x3cff898f	0.031193523
115	0x3cee576f	0.029094426
116	0x3d4fe6f5	0.050757367
117	0x3d481519	0.048848245
118	0x3d4d6183	0.050141823
119	0xbeb1bea9	-0.34715775
120	0x3dacf0e2	0.08444382
121	0xbcf6f83f	-0.03014767
122	0x3cc9e431	0.024644943
123	0x3d5b338f	0.053515967
124	0xbcf0598e	-0.029339578
125	0x3d78c42e	0.060733967
126	0x3b4e12d0	0.0031444319
127	0x3cc18a59	0.02362554
128	0x3dc979e1	0.098377
129	0x3d8a2cc0	0.06746817
130	0x3c6706aa	0.01410071
131	0x3c20f392	0.009823697
132	0x3dd2e38b	0.102973066
133	0x3d1d6d7e	0.038434498
134	0x3cf92175	0.030411461
135	0x3d150658	0.036383003
136	0x3d235be8	0.03988257
137	0x3dae89cf	0.08522379
138	0xbcc23d44	-0.023710854
139	0x3d5c0a0c	0.05372052
140	0x3d1d684a	0.038429536
141	0x3db8b6c5	0.090192355
142	0x3d9bb0bf	0.07602071
143	0x3e2a432d	0.16627188
144	0x3cc4b9de	0.02401441
145	0x3d587dbc	0.052854285
146	0x3d95d873	0.07316675
147	0x3d4e77e5	0.05040731
148	0x3d97d76f	0.074141376
149	0x3d72a96b	0.0592436
150	0x3d14d4db	0.036335807
151	0xbd21897f	-0.039437767
152	0x3d754aaa	0.05988566
153	0x3d874738	0.06605381
154	0x3d0129e6	0.031534098
155	0x3d697805	0.056999225
156	0x3ce3d071	0.027809354
157	0x3d8312dd	0.06400082
158	0xbf13c570	-0.5772314
159	0x3d34e3be	0.044162504
160	0x3d55749c	0.05211316
161	0x3d7d9e08	0.06191829
162	0x3ca81bb1	0.020521017
163	0x3c5f73ff	0.0136384955

encoder.encoder.0.1.running_mean f4 [164]
0	0x3f611cce	0.8793458
1	0xbff9797c	-1.9490199
2	0xbe856add	-0.26058093
3	0x3ce0ad0c	0.027426265
4	0x401c4d4a	2.4422174
5	0xbf1673a1	-0.58770186
6	0xc00a323e	-2.1593165
7	0x3f588aa4	0.8458655
8	0x3feedd4e	1.8661287
9	0x400ace7b	2.1688526
10	0xbfee4769	-1.8615543
11	0x4013febe	2.3124232
12	0x3f91b896	1.1384456
13	0xc01bacde	-2.432426
14	0x3f25e8cf	0.6480836
15	0xc053411a	-3.3008485
16	0x4079f830	3.9057732
17	0x40a16651	5.04374
18	0xc03addd8	-2.9197903
19	0xc07ebbcd	-3.9802125
20	0x3d3e7b43	0.04650427
21	0x3f0fdfda	0.56200945
22	0xbdd5efc2	-0.10446121
23	0x3faeae95	1.3647028
24	0xbfa89046	-1.3169029
25	0x3ff88e49	1.9418422
26	0xc035adfc	-2.8387442
27	0xc01ec0f0	-2.480526
28	0x3ffb27b0	1.9621487
29	0x3f1303c7	0.5742764
30	0xc039c9c2	-2.9029393
31	0x402ed0c4	2.731492
32	0xc098cd5f	-4.7750697
33	0xbf06eefa	-0.527084
34	0x3fcf8d08	1.6214914
35	0xbf0d95d5	-0.5530675
36	0xc005d8ae	-2.09135
37	0xbf2faa27	-0.68619007
38	0xc07c07ae	-3.9379687
39	0x3ff0b390	1.8804798
40	0xbf8c1ee8	-1.0946932
41	0xbfb3d513	-1.40494
42	0x4025af7c	2.5888357
43	0xbefda8d9	-0.49542883
44	0xc00841c2	-2.1290135
45	0xbea06db5	-0.313337
46	0xc0571b6a	-3.3610482
47	0xbf99408f	-1.1972827
48	0x3f338edf	0.7013988
49	0xc0c5582f	-6.1670146
50	0xbfdaaa7c	-1.7083278
51	0x4024515e	2.5674663
52	0xc06a165e	-3.6576152
53	0x3f2dabf4	0.67840505
54	0x404c8399	3.195532
55	0xbf7ea35c	-0.99468017
56	0xbf54522f	-0.829379
57	0x3f80f115	1.0073572
58	0xbfc487f9	-1.5353996
59	0xc0454671	-3.0824244
60	0x40a2210b	5.0665336
61	0xc01a90c6	-2.4150863
62	0xc0a9df49	-5.3085065
63	0x3e684ce0	0.22685575
64	0xbf058c2b	-0.52167004
65	0xbf324466	-0.6963562
66	0xbf2f5d00	-0.6850128
67	0xc0241d98	-2.5643063
68	0xc00bdcda	-2.1853547
69	0x3eaf01a9	0.34180954
70	0x3e9b2052	0.30298096
71	0x3f9c87bf	1.2228926
72	0x3fb4f7c6	1.4138114
73	0xbfa281fb	-1.2695917
74	0x3ea730dc	0.32654464
75	0xbff48d00	-1.910553
76	0x3f699316	0.9124006
77	0xc004a964	-2.0728388
78	0xbfa4e9df	-1.2883872
79	0x40982c61	4.7554173
80	0x3e57f2cf	0.21088718
81	0xbf857713	-1.0426964
82	0x406340a4	3.5508204
83	0x3fb4646d	1.4093148
84	0xbfb14a5a	-1.3850815
85	0x3eaabd46	0.3334753
86	0x3fe21e83	1.7665561
87	0xbefa4769	-0.48882607
88	0x3fe66e84	1.8002477
89	0xbf48c6bd	-0.7842825
90	0xbfe1158e	-1.7584703
91	0xc0be6c13	-5.9506927
92	0xc07b22d1	-3.924
93	0x403f828e	2.9923434
94	0x409902d3	4.7815948
95	0xbf5777cd	-0.84167176
96	0x3fc91ba5	1.5711561
97	0x3f3d4706	0.739365
98	0xbd7fa9c1	-0.06241775
99	0x40059c5e	2.087669
100	0xc0684bba	-3.629622
101	0xc02ba27d	-2.6817925
102	0x3f9b0554	1.2111001
103	0xbfd91f16	-1.6962612
104	0xbfc098f1	-1.5046674
105	0xbf4501a0	-0.76955605
106	0x3f60b5f4	0.8777764
107	0xbdf27537	-0.11838763
108	0x3ea184e5	0.31546703
109	0xbda52789	-0.08064181
110	0x3f9e4767	1.236554
111	0xc0406f61	-3.006798
112	0x408008e3	4.001085
113	0x3febbac8	1.8416376
114	0xc03b1844	-2.923356
115	0xc05147ac	-3.2699995
116	0x3f8b1d8e	1.0868394
117	0x3df322e5	0.1187189
118	0x3fd3f4ac	1.6559043
119	0xbfcc8662	-1.597851
120	0x3febead5	1.843104
121	0x3fb6ab0c	1.4270949
122	0xbf230064	-0.6367247
123	0x406d50b1	3.70805
124	0xc090ff0d	-4.531134
125	0x3f35397c	0.7079084
126	0x406d5665	3.708398
127	0x405fd4c4	3.4973612
128	0x3fff33cb	1.9937681
129	0x3fc71a88	1.5554972
130	0x3f54fe1c	0.8320024
131	0x3f577b6f	0.8417272
132	0x3f99b0f8	1.2007132
133	0x3fedc5d5	1.8575999
134	0x407a3f36	3.910108
135	0xc00022e3	-2.0021293
136	0xc0cd7d6c	-6.4215603
137	0x4018f6b1	2.3900568
138	0x3ffbb07b	1.9663233
139	0x3f587fb3	0.84569854
140	0x405609ed	3.3443558
141	0xbe49e399	-0.19715728
142	0x3f3c9d55	0.7367757
143	0x3ef30137	0.47461864
144	0xc040d737	-3.0131357
145	0xc0a2fc66	-5.0933104
146	0x3e83e6a3	0.257619
147	0x409691fe	4.7053213
148	0xbf33c9c8	-0.7022977
149	0x4046b3b9	3.1047194
150	0x3fe73812	1.8063986
151	0xbfe0a43e	-1.7550123
152	0xc02fe94d	-2.7486145
153	0xbe13603b	-0.14392178
154	0xbf25e258	-0.647985
155	0xbfe188ee	-1.7619913
156	0xbff519c3	-1.9148487
157	0x3fabf68b	1.3434614
158	0xbfb5433c	-1.4161143
159	0x3fe3b31b	1.7789034
160	0x40476b02	3.1159062
161	0xbf49222d	-0.78567773
162	0x3ec20329	0.37893036
163	0x402f3f79	2.738249

encoder.encoder.0.1.running_var f4 [164]
0	0x406cd3be	3.7004237
1	0x405ec0b0	3.4805107
2	0x4047f6d3	3.12444
3	0x40767469	3.850855
4	0x4053638d	3.302951
5	0x4049d070	3.153347
6	0x419730ca	18.898823
7	0x4073b53a	3.8079362
8	0x40dff00a	6.9980516
9	0x40811ba1	4.0346227
10	0x405ac698	3.4183712
11	0x405b2287	3.4239824
12	0x410ebe72	8.921495
13	0x4069ecb6	3.6550727
14	0x40863eec	4.195181
15	0x40e4419c	7.133009
16	0x408121f6	4.0353956
17	0x4142158b	12.1302595
18	0x4061277e	3.5180354
19	0x40937694	4.608225
20	0x4029fb27	2.6559541
21	0x4079f4ae	3.905559
22	0x40aede0b	5.464605
23	0x40e81c5b	7.2534614
24	0x412334a7	10.200355
25	0x4071307d	3.7685845
26	0x40f0bece	7.5232916
27	0x40af25b3	5.473352
28	0x4043e675	3.060941
29	0x411bad8d	9.729871
30	0x409d5307	4.916385
31	0x416b89db	14.721156
32	0x40363abb	2.8473346
33	0x403b37ce	2.925281
34	0x405bf917	3.4370782
35	0x410ca600	8.790527
36	0x40daf06a	6.8418474
37	0x40846040	4.1367493
38	0x4136f91d	11.435819
39	0x40384972	2.8794827
40	0x409a89cf	4.8293223
41	0x401e0b38	2.4694347
42	0x40aa727a	5.326474
43	0x40d6837d	6.703551
44	0x40bb8348	5.8597755
45	0x4058646e	3.3811297
46	0x40768e81	3.8524477
47	0x4141c985	12.111699
48	0x40887010	4.2636795
49	0x4070eba4	3.7643824
50	0x40e44cbe	7.134368
51	0x40743bfa	3.8161607
52	0x409cb0ad	4.896567
53	0x4080f107	4.0294223
54	0x40a20fe5	5.0644403
55	0x40d03223	6.50612
56	0x4190febf	18.124388
57	0x40eb87da	7.3603334
58	0x415709b3	13.439868
59	0x4072b000	3.7919922
60	0x407198d8	3.7749538
61	0x4081987a	4.049863
62	0x40e150ec	7.041128
63	0x4058c6c0	3.3871307
64	0x40e2a0de	7.082137
65	0x40940581	4.625672
66	0x408c1d32	4.378564
67	0x40d30f7a	6.595639
68	0x417e44b6	15.891775
69	0x4111600e	9.085951
70	0x412c0bf2	10.752916
71	0x405f2e70	3.4872093
72	0x40423320	3.0343704
73	0x4076bde5	3.8553402
74	0x40ecdf2f	7.402244
75	0x40f4c3a3	7.6488814
76	0x409a5174	4.822443
77	0x408d1a35	4.409449
78	0x414a38ab	12.638835
79	0x4067dbd2	3.6227918
80	0x4048383a	3.1284318
81	0x40c9d611	6.307381
82	0x406d84cc	3.7112303
83	0x404a9f36	3.1659675
84	0x40d33d57	6.601238
85	0x4097f6f0	4.7488937
86	0x4083263f	4.0984187
87	0x41796260	15.586517
88	0x409722d4	4.7230015
89	0x40154350	2.3322334
90	0x4053185f	3.2983625
91	0x405dabdd	3.4636147
92	0x4090b91a	4.5225954
93	0x401cd6a5	2.4506009
94	0x406668f0	3.6001549
95	0x4049feb7	3.1561716
96	0x403931b0	2.8936577
97	0x4055e26e	3.3419452
98	0x40bfd739	5.9950223
99	0x40a42ca3	5.130449
100	0x40af028a	5.46906
101	0x406234b3	3.5344665
102	0x4041b2c2	3.0265355
103	0x406e126f	3.719875
104	0x40f82f62	7.755784
105	0x40be41ef	5.9455485
106	0x409abf69	4.8358655
107	0x4032e754	2.7953691
108	0x40bbed1c	5.872694
109	0x41104b48	9.018379
110	0x40f26e9e	7.576003
111	0x4086eb70	4.21624
112	0x409593d8	4.6742973
113	0x4081ae91	4.0525594
114	0x409a8688	4.8289223
115	0x402abb9f	2.6677015
116	0x407b4d0d	3.9265778
117	0x404c3c93	3.1911972
118	0x4069aaaf	3.6510427
119	0x40e86176	7.261897
120	0x40c2c176	6.086116
121	0x409c5922	4.8858805
122	0x408791c1	4.236542
123	0x403ee163	2.9825065
124	0x40d8af45	6.771395
125	0x407b581a	3.9272523
126	0x40a06e12	5.0134363
127	0x4096b383	4.709413
128	0x40c30163	6.0939193
129	0x4048eea0	3.1395645
130	0x404e9cb9	3.2283156
131	0x403aaf05	2.9169323
132	0x40b0c430	5.5239487
133	0x4053df3a	3.3104997
134	0x403f680f	2.9907262
135	0x4038df98	2.888647
136	0x4081a14a	4.0509386
137	0x40573327	3.362497
138	0x40926ec4	4.576021
139	0x402b7bda	2.6794343
140	0x4127cbb3	10.487231
141	0x405326aa	3.2992349
142	0x408a73ef	4.326652
143	0x40bb449b	5.8521247
144	0x404d4e38	3.207899
145	0x4011365f	2.2689435
146	0x40ecd97e	7.4015493
147	0x40840452	4.1255274
148	0x40d8a6d6	6.7703657
149	0x408718bc	4.2217693
150	0x40626c85	3.5378735
151	0x40d9667d	6.793761
152	0x40807aca	4.014989
153	0x404b085b	3.172385
154	0x404efbe9	3.2341254
155	0x4086189c	4.190504
156	0x4063694f	3.5533025
157	0x403b0bb3	2.922589
158	0x411278ba	9.154474
159	0x4037c3c4	2.8713236
160	0x404bf80d	3.1870148
161	0x408bbd1a	4.3668337
162	0x408952b7	4.291347
163	0x4086d5fc	4.213621

encoder.mu.weight f4 [24, 164]
0	0x3ceea46c	0.029131137
1	0x3dc5315d	0.09628556
2	0xbe86b777	-0.26311848
3	0xbd562ec3	-0.05229069
4	0x3e1d86a6	0.15383396
5	0xbbc99007	-0.0061512026
6	0xbeafca5d	-0.34334078
7	0x3dadfa43	0.08494999
8	0x3d2f9d19	0.04287443
9	0x3eeda211	0.4641271
10	0xbe10e9f4	-0.14151746
11	0xbe0f7550	-0.14009595
12	0x3ea7a511	0.32743123
13	0x3eb0e231	0.3454757
14	0xbe4adbe0	-0.19810438
15	0x3f4f1074	0.8088448
16	0x3c11b9a6	0.00889436
17	0x3edf99f3	0.4367214
18	0xbd1618f8	-0.036644906
19	0xbeba0853	-0.36334476
20	0xbe3136a8	-0.17306006
21	0x3ddcf163	0.10788228
22	0x3f3aff55	0.73045856
23	0x3df128ec	0.11775383
24	0xbab8e13b	-0.001410521
25	0xbeade595	-0.3396422
26	0x3e536171	0.2064264
27	0x3e276ac8	0.16349328
28	0xbebc3e68	-0.36766362
29	0x3e50131c	0.2031979
30	0xbe982ad7	-0.29720184
31	0xbe6e31e8	-0.23261225
32	0xbe4202da	-0.189464
33	0xbeb288b9	-0.34869936
34	0xbe7c951d	-0.24666257
35	0xbeed248a	-0.4631694
36	0x3f5a3874	0.8524239
37	0x3f3f9de3	0.7485029
38	0x3dee99f9	0.11650462
39	0x3d4c55b2	0.049886413
40	0x3ead2db3	0.33823928
41	0xbe18aeee	-0.1491048
42	0xbe694d42	-0.22783378
43	0xbe8bf15b	-0.27332577
44	0xbe8490cd	-0.25891724
45	0x3f6e4ca6	0.93085706
46	0x3d6a7b35	0.057246406
47	0xbe17b890	-0.14816499
48	0xbdae51b8	-0.0851168
49	0x3ef4d3f6	0.47817963
50	0x3f07f53a	0.5310856
51	0x3d0850dc	0.03328024
52	0xbe6c514d	-0.23077889
53	0x3f3bc0a3	0.73340815
54	0xbe292bdd	-0.16520639
55	0x3dfe999a	0.12431641
56	0xbed86cd8	-0.4227054
57	0xbe914e79	-0.28380182
58	0xbe7f600d	-0.24938984
59	0xbdf59ce0	-0.11992812
60	0x3e03f704	0.12887198
61	0xbea1523c	-0.31508052
62	0x3cf3e956	0.02977435
63	0xbd75cf15	-0.060011942
64	0xbd7be49e	-0.061497323
65	0x3f21f279	0.6326061
66	0xbea779e6	-0.3271019
67	0xbd952b4e	-0.0728365
68	0x3e48d109	0.1961099
69	0x3e99d6d6	0.3004672
70	0x3dddec80	0.108361244
71	0x3ddfafbb	0.1092219
72	0xbe57a6e1	-0.21059753
73	0xbd5a2287	-0.053255584
74	0x3e34a7e9	0.17642178
75	0xbe1b160c	-0.15145129
76	0xbd111b51	-0.03542644
77	0xbdb73020	-0.08944726
78	0x3e911a19	0.28340223
79	0x3e47f8fc	0.19528574
80	0xbe5d64a0	-0.21620417
81	0x3ed98e4e	0.42491382
82	0xbe68e024	-0.22741753
83	0x3e30f34d	0.17280312
84	0x3f10a231	0.56497484
85	0xbd4a27e1	-0.049354438
86	0x3ebc910b	0.3682941
87	0xbd088575	-0.0333304
88	0x3ebeeb28	0.37288785
89	0xbe39717a	-0.18109694
90	0xbe43435e	-0.19068667
91	0xbe89bcec	-0.26901948
92	0xbdb7842e	-0.08960758
93	0xbd564890	-0.052315295
94	0x3b94c39e	0.004539921
95	0xbda45fe8	-0.08026105
96	0x3d0b3232	0.033983417
97	0x3e16f036	0.1474007
98	0xbe771833	-0.24130325
99	0x3cfb0421	0.030641617
100	0xbed4d3e9	-0.41567925
101	0xbea65b29	-0.32491425
102	0x3cae228a	0.021256704
103	0xbee7b267	-0.45253298
104	0xbdc97293	-0.098363064
105	0x3ed93810	0.42425585
106	0x3e88b572	0.26700932
107	0x3e49990e	0.19687292
108	0x3c315490	0.010823384
109	0xbea420bf	-0.32056233
110	0xbba01a18	-0.004885923
111	0xbeb74c5c	-0.35800445
112	0xbe53679f	-0.20644997
113	0xbe9f590f	-0.31122634
114	0xbde955bf	-0.11393308
115	0x3ca90ff3	0.020637488
116	0x3f074e80	0.52854156
117	0x3ed78215	0.42091432
118	0x3e70d775	0.2351969
119	0xbeabe005	-0.3356935
120	0x3e8e52d2	0.27797562
121	0x3f074859	0.5284477
122	0x3eddd18b	0.4332393
123	0x3e04dad3	0.129741
124	0x3e3d43b7	0.18482862
125	0xbe255ee0	-0.16149473
126	0xbe383310	-0.17988229
127	0x3d12507d	0.03572129
128	0xbd3ced4a	-0.046124734
129	0xbd4c4c0a	-0.049877204
130	0x3e01e1ff	0.12683867
131	0xbe957ca6	-0.29196662
132	0xbe54f6e4	-0.20797306
133	0x3e8446ff	0.25835416
134	0xbe9b69fa	-0.3035429
135	0x3e57f519	0.21089591
136	0x3d1421c8	0.03616503
137	0xbbd449f3	-0.006478542
138	0xbcc699d1	-0.024243267
139	0xbeb12f25	-0.3460628
140	0x3ebf6633	0.3738266
141	0x3ed6f7bc	0.4198588
142	0xbec0684a	-0.37579566
143	0x3f83c6fb	1.0295099
144	0x3e59fde6	0.21288261
145	0xbe1940fc	-0.14966196
146	0xbe6d3898	-0.2316612
147	0xbe0de3a9	-0.13856377
148	0xbe21e225	-0.15808924
149	0xbe5f922a	-0.21833101
150	0x3dfdf190	0.1239959
151	0x3e312404	0.17298895
152	0x3efde837	0.49591228
153	0xbf05d417	-0.5227675
154	0xbe596eb7	-0.2123364
155	0xbe8eef31	-0.27916864
156	0xbe6ffcae	-0.23436233
157	0xbdd266d8	-0.10273522
158	0xbe9e1436	-0.30874795
159	0xbcd6be13	-0.026213681
160	0xbea1c47e	-0.31595224
161	0xbd682127	-0.05667224
162	0x3e074552	0.13210037
163	0x3ea00d82	0.31260306
164	0xbf1c2516	-0.6099409
165	0xbed48f0d	-0.4151539
166	0xbd0d18ef	-0.034447607
167	0x3d875e3c	0.06609771
168	0x3f2722e4	0.65287614
169	0xbc8f550a	-0.017496604
170	0x3e61659a	0.22011414
171	0xbe010199	-0.12598266
172	0xbd44c073	-0.048035096
173	0xbef53f43	-0.47899827
174	0x3e8fce96	0.280873
175	0x3f0781c5	0.5293239
176	0x3f006409	0.5015264
177	0xbe0c52af	-0.13703416
178	0xbe922c23	-0.285493
179	0x3ea6a084	0.3254434
180	0xbdc5da36	-0.09660761
181	0x3ea61bcb	0.3244308
182	0x3d03f4f5	0.03221603
183	0x3e9f6e34	0.31138766
184	0xbe8f94af	-0.28043124
185	0xbe0d9e22	-0.13829854
186	0x3c6f8f6b	0.014621596
187	0xbebb8845	-0.36627403
188	0x3e940f81	0.2891808
189	0x3ef0733d	0.4696292
190	0x3e1bbb6e	0.15208218
191	0x3e5dfced	0.21678515
192	0x3ed5f3af	0.41787478
193	0x3da1e3f0	0.07904804
194	0xbe6ac91d	-0.22928281
195	0xbd074e08	-0.0330334
196	0xbedc98e7	-0.43085405
197	0x3e34f3d3	0.17671137
198	0x3ea990ba	0.3311823
199	0x3d82f046	0.06393485
200	0xbe48cda6	-0.19609699
201	0xbe0f2088	-0.13977253
202	0xbf610992	-0.8790523
203	0xbea01ef7	-0.31273624
204	0x3e3d4671	0.18483903
205	0xbdda2e93	-0.106534146
206	0x3e0585b3	0.13039283
207	0xbdf17c20	-0.11791253
208	0x3e1db4b6	0.15400967
209	0xbe73b35d	-0.2379889
210	0xbe8e7108	-0.2782061
211	0xbe9cbe89	-0.30614117
212	0x3e5d2e0c	0.21599597
213	0xbf0f7365	-0.56035453
214	0x3e4c578e	0.19955274
215	0xbd4a178d	-0.049338866
216	0xbdd25dd6	-0.10271804
217	0x3efaca25	0.4898235
218	0x3eb66a0a	0.35627776
219	0x3f019976	0.5062479
220	0xbf2d7cb6	-0.6776842
221	0x3f203a86	0.625893
222	0xbf23e2fe	-0.6401824
223	0x3d304640	0.043035746
224	0xbe49a854	-0.19693118
225	0x3eb3e667	0.3513672
226	0xbe0a729c	-0.13520283
227	0x3c7119e0	0.014715642
228	0xbcc36125	-0.023850033
229	0xbdf9a0fb	-0.12188908
230	0xbda48e44	-0.080349475
231	0xbeb5052c	-0.35355508
232	0xbe7ba918	-0.24576223
233	0x3a30be04	0.0006742182
234	0xbe325a13	-0.17417173
235	0x3d6e4329	0.058169518
236	0x3ee5a11f	0.44849488
237	0xbd9fc3be	-0.07801007
238	0xbd3b5943	-0.045739423
239	0x3dcf13cb	0.10111197
240	0xbe5ca3a0	-0.21546793
241	0xbefe4134	-0.4965912
242	0xbf0b0a82	-0.5431291
243	0xbe073450	-0.1320355
244	0xbe6a4707	-0.22878657
245	0xbdeaac7f	-0.11458682
246	0xbe1a2fa1	-0.15057231
247	0xbf03b110	-0.5144205
248	0xbd9a3d5f	-0.07531237
249	0xbf06eb80	-0.52703094
250	0xbc308484	-0.010773782
251	0x3ebadd8f	0.3649716
252	0x3edbb62d	0.42912427
253	0x3f46d8d0	0.7767458
254	0xbf150ebc	-0.5822561
255	0xbe90883b	-0.28228936

encoder.mu.bias f4 [24]
0	0xbf4ffdaa	-0.81246436
1	0x3f43422f	0.76272863
2	0x3fb7db51	1.4363805
3	0x3dd92c74	0.10604182
4	0xbead2f7f	-0.338253
5	0x3e61f7fe	0.22067258
6	0x3ce1c0c4	0.027557738
7	0xbcf25e95	-0.029586116
8	0x3ec0eae5	0.3767921
9	0xbf436bf3	-0.7633659
10	0x3e6b437a	0.22974959
11	0x3f0be28c	0.5464256
12	0xbf25acf4	-0.6471703
13	0x3c4d27ea	0.012521723
14	0x3f31adc3	0.69405764
15	0x3f317f5a	0.6933495
16	0x3f69ea45	0.9137309
17	0x3ea6db85	0.32589355
18	0xbe62bdba	-0.22142687
19	0x3e8df469	0.27725533
20	0xbf43d968	-0.7650361
21	0xbe8ab881	-0.2709389
22	0xbe9ac62c	-0.30229318
23	0xbf0bb563	-0.5457365

encoder.logvar.weight f4 [24, 164]
0	0x3e441392	0.1914809
1	0x3e7decad	0.24797316
2	0xbe9fe0f9	-0.31226328
3	0xbd958ab8	-0.07301849
4	0x3e5b7941	0.21432973
5	0xbdaeccae	-0.08535133
6	0xbe1b9a79	-0.15195645
7	0xbe97fae6	-0.29683608
8	0xbe2ac1e1	-0.16675521
9	0x3d2e4d26	0.042554043
10	0xbe3a91ed	-0.18219729
11	0xbe79b3ba	-0.24384966
12	0xbc4592de	-0.012058942
13	0x3e0b823a	0.13623896
14	0xbe19667e	-0.14980504
15	0x3eeef001	0.46667483
16	0xbe9e0335	-0.30861822
17	0x3e9f6c56	0.3113734
18	0x3eaeb6f0	0.34123945
19	0xbdf440ef	-0.119264476
20	0xbe565150	-0.20929456
21	0x3f01d132	0.5070983
22	0x3ec179ec	0.37788332
23	0xbd93152b	-0.07181772
24	0x3e3b3dde	0.18285319
25	0xbe55ff4c	-0.2089817
26	0x3e8a76c3	0.27043733
27	0xbe616f39	-0.22015084
28	0xbe708ffb	-0.23492424
29	0xbcabaf22	-0.020957533
30	0xbee9ccf6	-0.45664185
31	0xbd84113e	-0.06448601
32	0xbe1bf194	-0.15228873
33	0xbe02ce90	-0.1277411
34	0xbe676d16	-0.22600207
35	0xbe86e776	-0.26348466
36	0x3f006337	0.5015139
37	0x3f079be7	0.52972263
38	0x3c09c947	0.008409805
39	0xbd900a59	-0.07033224
40	0xbe66b8ae	-0.22531387
41	0xbd466016	-0.04843148
42	0xbe04a919	-0.1295513
43	0x3d82c31a	0.06384869
44	0xbdfeabdc	-0.12435123
45	0x3f266e05	0.65011626
46	0xbd8ef970	-0.0698117
47	0xbdebe4d4	-0.11518255
48	0xbd89aa7a	-0.06721969
49	0x3d5ddc31	0.05416507
50	0x3f0d2943	0.55141085
51	0x3e657dcd	0.2241127
52	0x3c83046e	0.015993323
53	0x3ebd1ae3	0.36934575
54	0x3ddb5877	0.10710233
55	0xbe4afe54	-0.19823581
56	0xbe283d56	-0.16429648
57	0xbe2b95c9	-0.16756357
58	0xbe6debad	-0.23234434
59	0xbd96a281	-0.07355214
60	0x3daba09a	0.08380242
61	0xbdff5f5a	-0.12469359
62	0xbdfbdd35	-0.12298051
63	0xbe5147c0	-0.20437527
64	0x3d7814f3	0.060566854
65	0x3f66e835	0.9019807
66	0xbe9433a4	-0.2894565
67	0x3d6fe5ec	0.05856888
68	0xbc44ffb8	-0.012023859
69	0x3a5f3f14	0.0008516174
70	0xbd3f1635	-0.046652038
71	0xbd8fc56f	-0.07020079
72	0xbd13a999	-0.036050413
73	0xbd1c53d0	-0.038165867
74	0xbb8e367a	-0.00433999
75	0xbea862e6	-0.32887954
76	0xbd308288	-0.043093234
77	0xbe32a824	-0.17446953
78	0xbe082da1	-0.13298656
79	0xbe056bf0	-0.13029456
80	0xbe6949cb	-0.22782056
81	0x3eef03aa	0.46682483
82	0xbe40e99e	-0.18839118
83	0x3d19d88f	0.037560042
84	0x3e830bbd	0.25594893
85	0xbd6c46ad	-0.05768459
86	0x3ecc3f77	0.3989217
87	0x3d908b56	0.07057826
88	0x3e9d7d4c	0.30759656
89	0xbd5016b4	-0.0508029
90	0xbdead3ed	-0.11466203
91	0xbe35636b	-0.17713706
92	0xbe0f7ec0	-0.14013195
93	0x3ca76719	0.020434903
94	0xbcaa6b58	-0.020803139
95	0xbdffa818	-0.12483233
96	0xbdd17ed4	-0.10229269
97	0x3e475cf5	0.19469054
98	0xbea7b32f	-0.32753894
99	0xbec2ad6e	-0.3802294
100	0xbe0c8b1b	-0.1372494
101	0xbd444d41	-0.047925238
102	0xbe37f2d9	-0.17963733
103	0xbe6e0fd3	-0.23248224
104	0x3c7a8698	0.015290879
105	0x3dff93bf	0.12479352
106	0x3e9945b6	0.29935998
107	0x3cdef7ab	0.027217707
108	0x3e40cbe4	0.18827778
109	0xbe8eb43c	-0.27871883
110	0xbd37c239	-0.04486296
111	0xbeb3df8c	-0.3513149
112	0xbda60151	-0.0810572
113	0xbe6c9f85	-0.23107727
114	0xbe85acdc	-0.26108444
115	0xbe07244a	-0.13197437
116	0x3ec274aa	0.37979633
117	0x3eb5a7c7	0.35479566
118	0x3dae22fe	0.08502768
119	0x3d191afb	0.037379246
120	0x3e5d3e7f	0.21605872
121	0x3db95aba	0.09050508
122	0xbcc09a8a	-0.02351119
123	0x3d34f61a	0.044180013
124	0xbca95aa2	-0.0206731
125	0xbe507734	-0.20357972
126	0xbe80cf8c	-0.25158346
127	0x3bc57de1	0.006026969
128	0x3c4451a6	0.011982357
129	0x3e2fd8aa	0.17172495
130	0x3d8abb59	0.06774015
131	0xbd1c09be	-0.03809523
132	0xbe2fd4c8	-0.17171013
133	0x3e406505	0.18788536
134	0xbd9efbce	-0.07762872
135	0xbdd51f5a	-0.104063705
136	0x3dc57af4	0.09642592
137	0x3d972827	0.07380705
138	0xbe6e01d9	-0.23242892
139	0xbdd3821e	-0.10327552
140	0x3f039f30	0.51414776
141	0x3eae2129	0.34009674
142	0xbdccb893	-0.09996142
143	0x3f2d4310	0.67680454
144	0x3c29adf7	0.010356418
145	0xbcfdc430	-0.030977339
146	0xbe1724f4	-0.1476019
147	0xbe65fcc6	-0.22459707
148	0xbd58d998	-0.05294189
149	0xbe4f6b46	-0.20255765
150	0x3db073c6	0.08615832
151	0xbdbb3fcd	-0.091430284
152	0x3c3d0c2b	0.011538546
153	0xbe137206	-0.14398965
154	0xbdcdccd3	-0.10048833
155	0xbe5fa98b	-0.2184202
156	0xbcfc12be	-0.030770656
157	0xbdff2d71	-0.12459839
158	0x3c6e0cef	0.014529451
159	0xbe859aab	-0.26094565
160	0xbe343d31	-0.17601468
161	0xbcb0ba51	-0.021573218
162	0x3cc59363	0.024118131
163	0xbde744d5	-0.112924255
164	0x3eaff7a0	0.3436861
165	0x3da43be6	0.08019237
166	0xbe5c3d2d	-0.21507712
167	0x3e31d2f5	0.1736563
168	0xbe43f9c8	-0.19138253
169	0xbd08ecc4	-0.033428922
170	0xbdeb21f2	-0.11481084
171	0xbe79ab26	-0.24381694
172	0xbe1b5222	-0.1516805
173	0x3e27c672	0.16384295
174	0xbd30bb4e	-0.043147378
175	0x3d6da20d	0.05801587
176	0xbe6e2f66	-0.23260269
177	0xbb5dc92c	-0.0033841832
178	0x3c508b38	0.012728505
179	0xbbceecca	-0.0063148485
180	0xbe1742e7	-0.14771615
181	0xbeb52d10	-0.35385942
182	0x3ea79bd1	0.32736066
183	0xbe6e4411	-0.23268153
184	0x3e124824	0.14285332
185	0x3f28f4ef	0.6599874
186	0xbd946312	-0.07245459
187	0xbdaa2f40	-0.083097935
188	0x3d93711a	0.07199307
189	0x3da28513	0.07935538
190	0x3ddb5d21	0.10711122
191	0x3d89b08c	0.06723127
192	0x3d4ad474	0.049519017
193	0xbe81be54	-0.2534052
194	0xbea5ef28	-0.32409024
195	0xbccfd7ac	-0.025371395
196	0x3e20afc6	0.15692052
197	0xbe38f867	-0.18063508
198	0xbe40d102	-0.1882973
199	0x3da87b4c	0.08226642
200	0x3de60afd	0.112325646
201	0x3e2bfb85	0.16795166
202	0xbe1697b9	-0.14706315
203	0x3d46f61f	0.048574563
204	0xbe2a5964	-0.16635662
205	0x3e0a4c6a	0.13505712
206	0xbe511670	-0.20418715
207	0x3d068545	0.03284194
208	0xbc344082	-0.011001708
209	0x3ebc26c6	0.36748332
210	0xbc8e8c93	-0.017401015
211	0x3d8824cb	0.06647643
212	0xbcff4223	-0.031159466
213	0x3d51b88d	0.051201392
214	0x3e16d3f3	0.1472929
215	0x3e3ba0a4	0.18322998
216	0xbe57da86	-0.21079454
217	0xbdab7bd4	-0.08373228
218	0x3e53a5dc	0.20668739
219	0xbe8e8a8e	-0.27840084
220	0xbd1d69c9	-0.038430963
221	0xbeaa51ff	-0.33265683
222	0x3e0f8ca8	0.140185
223	0x3c836462	0.016039077
224	0xbdbf4d8e	-0.09340964
225	0xbe4359f5	-0.19077285
226	0x3ddf34f2	0.108987704
227	0xbd4a047a	-0.049320675
228	0x3d98afde	0.07455419
229	0x3f15d39a	0.58526003
230	0xbe4b3209	-0.19843306
231	0x3d1e85fd	0.038702
232	0xbec49f59	-0.38402823
233	0xbdecc771	-0.11561478
234	0xbe432e31	-0.1906059
235	0x3c95bbf9	0.018278109
236	0x3da8027e	0.082036
237	0xbe55b4b4	-0.20869714
238	0x3e47d79e	0.19515845
239	0xbde0b02e	-0.109711036
240	0x3d28c76d	0.041205812
241	0xbc224650	-0.009904459
242	0xbe8e8707	-0.27837393
243	0xbe972903	-0.29523477
244	0x3e98690f	0.29767653
245	0x3e3af0e3	0.18255953
246	0x3d9aeb40	0.075644016
247	0xbe16aea6	-0.1471506
248	0xbdc73cdd	-0.097284056
249	0x3d9ecdf1	0.07754124
250	0x3dbab0a7	0.09115725
251	0xbe659a22	-0.22422078
252	0xbc927af4	-0.017880894
253	0xbc85bb02	-0.016324524
254	0x3eac7535	0.33683172
255	0x3d7b0b1a	0.061289884

encoder.logvar.bias f4 [24]
0	0xbfa142b8	-1.2598486
1	0xbf791557	-0.97298187
2	0xbf9fd56c	-1.2487006
3	0xbfec5fc0	-1.846672
4	0xc00ce6e7	-2.2015932
5	0xbfd3b456	-1.6539409
6	0xbfee6769	-1.8625308
7	0xbffeaf95	-1.9897333
8	0xbfc219ec	-1.5164161
9	0xbfa0459c	-1.2521243
10	0xbfe3141e	-1.7740514
11	0xc0170100	-2.359436
12	0xbfd98840	-1.6994705
13	0xbff10270	-1.8828869
14	0xbfbeb7a9	-1.4899799
15	0xc06baf16	-3.6825614
16	0xbf892cce	-1.0716798
17	0xbfc948db	-1.5725359
18	0xc0078237	-2.1173227
19	0xbf8d9dd9	-1.1063796
20	0xbfb6c975	-1.428023
21	0xbfe265db	-1.7687334
22	0xbf7f5574	-0.99739766
23	0xbfaf7b94	-1.3709588

decoder.decoder.0.0.weight f4 [164, 24]
0	0x3d343400	0.043994904
1	0xbca1d88d	-0.01975658
2	0x3f00dbb2	0.5033523
3	0x3bfae79a	0.0076570036
4	0xbf254c88	-0.645699
5	0x3d1cae12	0.038251944
6	0xbe177a70	-0.147928
7	0x3cac72b3	0.021050787
8	0x3da27c2e	0.07933842
9	0x3d6cd78d	0.057822753
10	0xbdce7b86	-0.10082154
11	0xbdb118f0	-0.086473346
12	0xbdfd3aa3	-0.123647
13	0xbd5734cf	-0.052540597
14	0xbda1a330	-0.07892454
15	0xbf94ad91	-1.1615468
16	0xbf0bcfce	-0.5461396
17	0x3d5e9a2d	0.054346252
18	0xbdef4972	-0.116839305
19	0xbe8dd2fc	-0.2770003
20	0x3d21b290	0.03947693
21	0x3e1f0838	0.15530479
22	0x3ed5c69f	0.41753098
23	0x3da7597e	0.08171366
24	0x3c90e18b	0.017685672
25	0xbe77238c	-0.24134654
26	0x3e7554f8	0.23958194
27	0xbd163543	-0.036671888
28	0xbe8e9012	-0.27844292
29	0xbd504223	-0.050844323
30	0x3d8ec533	0.069712065
31	0xbd478ae1	-0.04871643
32	0x3f28c0cc	0.65919185
33	0xbd2264b9	-0.039646838
34	0x3d74e4ee	0.059788637
35	0xbd5b2628	-0.053503186
36	0xbd197549	-0.037465367
37	0x3d38e1f2	0.045137353
38	0xbd3ea7f6	-0.0465469
39	0xbfd19533	-1.6373657
40	0xbd773741	-0.06035543
41	0xbbc963b0	-0.006145917
42	0xbe1daec9	-0.15398706
43	0xbdbb2e29	-0.09139664
44	0xbec959c2	-0.39326292
45	0xbd39d03a	-0.045364596
46	0x3d75e08f	0.06002861
47	0xbe2dccd8	-0.16972673
48	0x3d180e25	0.037122864
49	0x3d347bf2	0.044063516
50	0x3d0be7a8	0.03415647
51	0xbd146044	-0.03622462
52	0x3e42cb8a	0.19022956
53	0xbe16e0d1	-0.14734198
54	0xbcfb8fdc	-0.030708246
55	0x3d31fc04	0.04345323
56	0xbf37a8ad	-0.71741754
57	0xbec42b24	-0.38314164
58	0x3d3e4354	0.046450928
59	0xbd9a21a5	-0.075259484
60	0x3dd22156	0.102602646
61	0x3c836efb	0.01604413
62	0x3cbf7883	0.023372894
63	0x3ff10fda	1.8832963
64	0x3d919c5a	0.071099
65	0x3dd2c495	0.10291401
66	0x3c91114f	0.017708449
67	0xbd8d3054	-0.068939835
68	0x3e00729c	0.1254372
69	0xbdd8b189	-0.10580737
70	0x3eaf77d9	0.34271124
71	0xbea0a454	-0.31375372
72	0xbe22e5b6	-0.1590794
73	0xbc00ae18	-0.007854007
74	0xbe178ac8	-0.14799035
75	0x3dfb596b	0.122729145
76	0xbdb50c0a	-0.08840187
77	0xbab01295	-0.0013433272
78	0xbd9cff63	-0.07665899
79	0x3de33534	0.11094132
80	0x3e0aa2af	0.13538621
81	0x3d6a6443	0.057224523
82	0x3c22b68e	0.00993122
83	0xbe22f871	-0.15915085
84	0xbdb2e4fe	-0.08735083
85	0x3cc739e8	0.024319604
86	0x3b2b78f0	0.0026164614
87	0xc019e55b	-2.4046237
88	0xbe237d4f	-0.1596577
89	0xbd23f9ca	-0.04003314
90	0xbc1b1f9b	-0.009467985
91	0x3e7c6537	0.24647985
92	0xbdf9224c	-0.12164745
93	0x3ba44d4d	0.005014098
94	0x3d970202	0.0737343
95	0x3bad0ec4	0.005281301
96	0x3dd0f00e	0.10202037
97	0x3e8d246c	0.2756685
98	0x3d341743	0.043967497
99	0xbca2451b	-0.019808343
100	0x3e7a79b1	0.24460484
101	0x3d0ec7fd	0.034858692
102	0x3e1500eb	0.14551131
103	0xbd90b873	-0.07066431
104	0xbe992241	-0.29908946
105	0x3d921545	0.07132963
106	0xbda4d556	-0.08048503
107	0x3fa901f6	1.3203723
108	0x3d5303f5	0.051517446
109	0x3c84cc7b	0.016210785
110	0xbd228d16	-0.03968533
111	0x3f49bdfa	0.78805506
112	0xbe884fb7	-0.26623318
113	0xbc92eeed	-0.017936194
114	0x3e8a3477	0.26993152
115	0xbd9ab1db	-0.075534545
116	0xbcfcdc7f	-0.03086686
117	0x3c8d1d14	0.01722578
118	0x3dfabb66	0.12242775
119	0x3d6a23f0	0.05716318
120	0xbf775aec	-0.9662311
121	0x3f3b9697	0.73276657
122	0x3e756ff0	0.23968482
123	0x3e7a1219	0.24420966
124	0xbdb52d50	-0.08846533
125	0xbdb22f72	-0.08700456
126	0x3d921fe1	0.07134987
127	0x3e667d34	0.22508699
128	0x3c65335a	0.013989294
129	0xbcbdb313	-0.023156678
130	0x3e725c9b	0.23668139
131	0xbdb0c444	-0.08631185
132	0xbe0ee142	-0.13953117
133	0xba882fd3	-0.0010390229
134	0x3d4acc5b	0.049511295
135	0x3f55daa1	0.83536726
136	0xbe3e7060	-0.18597555
137	0xbd765e32	-0.060148425
138	0x3e6c505f	0.23077534
139	0xbe104736	-0.14089665
140	0xbf05f6b2	-0.5232955
141	0xbc23bf5a	-0.009994352
142	0xbe95a7e7	-0.29229662
143	0xbd568afc	-0.05237864
144	0x3d906f40	0.07052469
145	0xbd040e4a	-0.03224019
146	0xbdc8fba3	-0.09813621
147	0xbdcbbfba	-0.09948678
148	0xbd784a64	-0.06061782
149	0x3e88c419	0.2671211
150	0x3c714f79	0.01472842
151	0xbd984f4e	-0.07437001
152	0xbcaa8495	-0.020815173
153	0x3d9500cc	0.072755426
154	0xbe3968e8	-0.18106425
155	0xbea70730	-0.3262267
156	0xbf8fa694	-1.1222711
157	0xbcd8d4fa	-0.026468743
158	0xbd1dcd72	-0.038526006
159	0x3fc5e484	1.5460362
160	0x3d99e146	0.075136706
161	0xbdd29b02	-0.10283472
162	0x3e702a93	0.23453741
163	0xbd128571	-0.03577179
164	0x3d0e5165	0.034745593
165	0x3de87fba	0.11352487
166	0xbd117497	-0.03551158
167	0x3dda6bd2	0.10665096
168	0xbf018c72	-0.5060493
169	0xbe30bac9	-0.17258753
170	0xbc7feee2	-0.015620919
171	0xbea9c07d	-0.3315467
172	0x3ccb7686	0.02483679
173	0x3da895bb	0.08231684
174	0xbe9d07c0	-0.30669975
175	0xbe349410	-0.17634606
176	0xbf23069f	-0.6368198
177	0xbecc418c	-0.39893758
178	0xbef1bd26	-0.4721462
179	0xbeedfcf4	-0.4648205
180	0xbe23cc35	-0.15995868
181	0x3e247ff2	0.16064432
182	0xbdbbef6f	-0.09176528
183	0xbea59198	-0.32337642
184	0x38a35c57	7.789645e-05
185	0xbda06427	-0.078316025
186	0xbf2e5e61	-0.6811276
187	0xbe7008d5	-0.23440869
188	0xbe5d4f63	-0.21612315
189	0xbe6a36c7	-0.22872458
190	0x3f05b818	0.5223403
191	0xbd58c26e	-0.052919798
192	0x3d0d5d23	0.03451265
193	0xbad4079b	-0.0016176583
194	0xbd12a7bf	-0.035804506
195	0xbe6bd776	-0.2303141
196	0xbe0e60f2	-0.13904169
197	0x3e3b5a74	0.18296224
198	0x3ed055e2	0.40690523
199	0x3e25a4f4	0.16176206
200	0xbd81bec1	-0.063352115
201	0x3c4783ff	0.012177466
202	0xbf07a435	-0.52984935
203	0x3e7fb01b	0.24969523
204	0x3ea27489	0.31729534
205	0xbe9c2f3d	-0.3050479
206	0xbe012c2c	-0.12614506
207	0x3fc8a60d	1.5675675
208	0x3cf27e83	0.029601341
209	0xbe11d34f	-0.14240764
210	0xbe55dbdd	-0.20884652
211	0xbeb5408c	-0.35400808
212	0x3e36b7f6	0.17843613
213	0x3df742e6	0.12073307
214	0x3c1a08f3	0.009401548
215	0x3ce47b0d	0.027890706
216	0x3c1643fd	0.009171483
217	0xbd7da957	-0.061929073
218	0xbd73112c	-0.05934255
219	0x3c37f9a0	0.011228949
220	0xbd2d1efa	-0.04226587
221	0x3c58cda6	0.013232624
222	0xbd1666ea	-0.03671924
223	0xbc2d99b2	-0.010595726
224	0x3b893cfe	0.004188179
225	0x3cd15e1f	0.025557576
226	0xbca04337	-0.0195633
227	0x3d832473	0.064034365
228	0x3c440df8	0.011966221
229	0xbcb7b543	-0.0224253
230	0xbd933733	-0.07188263
231	0x3fad3b41	1.3533708
232	0xbd48e157	-0.049043026
233	0xbd0afc13	-0.033931803
234	0xbcdd864c	-0.027041577
235	0x3dead0cf	0.11465608
236	0xbc4748fb	-0.012163396
237	0xbfc6b7b9	-1.5524818
238	0xbc8c79e8	-0.017147973
239	0x3ca6b210	0.020348579
240	0xbe8244e4	-0.25443184
241	0x3b8cc262	0.004295633
242	0xbe508a50	-0.20365262
243	0xbd7c8c86	-0.06165745
244	0x3e98df28	0.29857755
245	0x3dd934aa	0.10605748
246	0x3ee308dd	0.443427
247	0x3e1f8216	0.15576968
248	0x3eee81b7	0.4658334
249	0x3dd9e741	0.10639811
250	0x3eb96735	0.36211553
251	0x3d3897b0	0.045066535
252	0x3da74251	0.08166946
253	0xbe3c92f4	-0.18415433
254	0xbd46722f	-0.048448738
255	0x3fd770ee	1.6831338
